ST Edge AI Core v2.2.0-20266 2adc00962
Created date          : 2025-11-07 11:58:49
Parameters            : generate --target stm32f4 --name 8_channel -m D:/NeoBionics/emg data/model00107112025/model_quant_int8.tflite --compression none --verbosity 1 --workspace C:/Users/med ammar bellalah/AppData/Local/Temp/mxAI_workspace141037911459004434411392183702769 --output C:/Users/med ammar bellalah/.stm32cubemx/network_output

Exec/report summary (generate)
------------------------------------------------------------------------------------------------------------------------
model file         :   D:\NeoBionics\emg data\model00107112025\model_quant_int8.tflite                                  
type               :   tflite                                                                                           
c_name             :   8_channel                                                                                        
compression        :   none                                                                                             
options            :   allocate-inputs, allocate-outputs                                                                
optimization       :   balanced                                                                                         
target/series      :   stm32f4                                                                                          
workspace dir      :   C:\Users\med ammar bellalah\AppData\Local\Temp\mxAI_workspace141037911459004434411392183702769   
output dir         :   C:\Users\med ammar bellalah\.stm32cubemx\network_output                                          
model_fmt          :   ss/sa per channel                                                                                
model_name         :   model_quant_int8                                                                                 
model_hash         :   0x0a1bdfae87935ea8f94bec951af7cd5d                                                               
params #           :   368 items (464 B)                                                                                
------------------------------------------------------------------------------------------------------------------------
input 1/1          :   'serving_default_keras_tensor0', int8(1x9), 9 Bytes, QLinear(0.066988699,5,int8), activations    
output 1/1         :   'nl_3', int8(1x8), 8 Bytes, QLinear(0.003906250,-128,int8), activations                          
macc               :   488                                                                                              
weights (ro)       :   464 B (464 B) (1 segment) / -1,008(-68.5%) vs float model                                        
activations (rw)   :   208 B (208 B) (1 segment) *                                                                      
ram (total)        :   208 B (208 B) = 208 + 0 + 0                                                                      
------------------------------------------------------------------------------------------------------------------------
(*) 'input'/'output' buffers are allocated in the activations buffer

Model name - model_quant_int8
------ ----------------------------------------- ------------ ------------ ------ ------------------------------- --- --------------- --------------- --------------------- 
m_id   layer (type,original)                     oshape       param/size     macc                    connected to   | c_size          c_macc          c_type                
------ ----------------------------------------- ------------ ------------ ------ ------------------------------- --- --------------- --------------- --------------------- 
0      serving_default_keras_tensor0 (Input, )   [b:1,c:9]                                                          | +208(+100.0%)   +160(+100.0%)   Dense_[0]             
       tfl_pseudo_qconst5 (Placeholder, )        [b:16,c:9]   144/144                                               | -144(-100.0%)                   
       tfl_pseudo_qconst4 (Placeholder, )        [b:16]       16/64                                                 | -64(-100.0%)                    
       gemm_0 (Gemm, FULLY_CONNECTED)            [b:1,c:16]                   160   serving_default_keras_tensor0   |                 -160(-100.0%)   
                                                                                               tfl_pseudo_qconst5   | 
                                                                                               tfl_pseudo_qconst4   | 
       nl_0_nl (Nonlinearity, FULLY_CONNECTED)   [b:1,c:16]                    16                          gemm_0   |                 -16(-100.0%)    
------ ----------------------------------------- ------------ ------------ ------ ------------------------------- --- --------------- --------------- --------------------- 
1      tfl_pseudo_qconst3 (Placeholder, )        [b:8,c:16]   128/128                                               | +32(+25.0%)     +136(+100.0%)   Dense_[1]             
       tfl_pseudo_qconst2 (Placeholder, )        [b:8]        8/32                                                  | -32(-100.0%)                    
       gemm_1 (Gemm, FULLY_CONNECTED)            [b:1,c:8]                    136                         nl_0_nl   |                 -136(-100.0%)   
                                                                                               tfl_pseudo_qconst3   | 
                                                                                               tfl_pseudo_qconst2   | 
       nl_1_nl (Nonlinearity, FULLY_CONNECTED)   [b:1,c:8]                      8                          gemm_1   |                 -8(-100.0%)     
------ ----------------------------------------- ------------ ------------ ------ ------------------------------- --- --------------- --------------- --------------------- 
2      tfl_pseudo_qconst1 (Placeholder, )        [b:8,c:8]    64/64                                                 | +32(+50.0%)     +72(+100.0%)    Dense_[2]             
       tfl_pseudo_qconst (Placeholder, )         [b:8]        8/32                                                  | -32(-100.0%)                    
       gemm_2 (Gemm, FULLY_CONNECTED)            [b:1,c:8]                     72                         nl_1_nl   |                 -72(-100.0%)    
                                                                                               tfl_pseudo_qconst1   | 
                                                                                                tfl_pseudo_qconst   | 
------ ----------------------------------------- ------------ ------------ ------ ------------------------------- --- --------------- --------------- --------------------- 
3      nl_3 (Nonlinearity, SOFTMAX)              [b:1,c:8]                    120                          gemm_2   |                                 Nonlinearity_[o][3]   
------ ----------------------------------------- ------------ ------------ ------ ------------------------------- --- --------------- --------------- --------------------- 
model/c-model: macc=512/488 -24(-4.7%) weights=464/464  activations=--/208 io=--/0



Generated C-graph summary
------------------------------------------------------------------------------------------------------------------------
model name            : model_quant_int8
c-name                : 8_channel
c-node #              : 4
c-array #             : 15
activations size      : 208 (1 segment)
weights size          : 464 (1 segment)
macc                  : 488
inputs                : ['serving_default_keras_tensor0_output']
outputs               : ['nl_3_output']

C-Arrays (15)
------ -------------------------------------- ----------- ------------------------- ----------- --------- 
c_id   name (*_array)                         item/size   domain/mem-pool           c-type      comment   
------ -------------------------------------- ----------- ------------------------- ----------- --------- 
0      gemm_0_bias                            16/64       weights/weights           const s32             
1      gemm_0_output                          16/16       activations/**default**   s8                    
2      gemm_0_scratch0                        89/178      activations/**default**   s16                   
3      gemm_0_weights                         144/144     weights/weights           const s8              
4      gemm_1_bias                            8/32        weights/weights           const s32             
5      gemm_1_output                          8/8         activations/**default**   s8                    
6      gemm_1_scratch0                        56/112      activations/**default**   s16                   
7      gemm_1_weights                         128/128     weights/weights           const s8              
8      gemm_2_bias                            8/32        weights/weights           const s32             
9      gemm_2_output                          8/8         activations/**default**   s8                    
10     gemm_2_scratch0                        48/96       activations/**default**   s16                   
11     gemm_2_weights                         64/64       weights/weights           const s8              
12     nl_3_output                            8/8         activations/**default**   s8          /output   
13     nl_3_scratch0                          31/124      activations/**default**   s32                   
14     serving_default_keras_tensor0_output   9/9         activations/**default**   s8          /input    
------ -------------------------------------- ----------- ------------------------- ----------- --------- 

C-Layers (4)
------ ---------------- ---- --------------- ------ ----- ----------------------------------------- ------------------ 
c_id   name (*_layer)   id   layer_type      macc   rom   tensors                                   shape (array id)   
------ ---------------- ---- --------------- ------ ----- ----------------------------------------- ------------------ 
0      gemm_0           0    Dense           160    208   I: serving_default_keras_tensor0_output   int8(1x9) (14)     
                                                          S: gemm_0_scratch0                                           
                                                          W: gemm_0_weights                         int8(16x9) (3)     
                                                          W: gemm_0_bias                            int32(16) (0)      
                                                          O: gemm_0_output                          int8(1x16) (1)     
------ ---------------- ---- --------------- ------ ----- ----------------------------------------- ------------------ 
1      gemm_1           1    Dense           136    160   I: gemm_0_output                          int8(1x16) (1)     
                                                          S: gemm_1_scratch0                                           
                                                          W: gemm_1_weights                         int8(8x16) (7)     
                                                          W: gemm_1_bias                            int32(8) (4)       
                                                          O: gemm_1_output                          int8(1x8) (5)      
------ ---------------- ---- --------------- ------ ----- ----------------------------------------- ------------------ 
2      gemm_2           2    Dense           72     96    I: gemm_1_output                          int8(1x8) (5)      
                                                          S: gemm_2_scratch0                                           
                                                          W: gemm_2_weights                         int8(8x8) (11)     
                                                          W: gemm_2_bias                            int32(8) (8)       
                                                          O: gemm_2_output                          int8(1x8) (9)      
------ ---------------- ---- --------------- ------ ----- ----------------------------------------- ------------------ 
3      nl_3             3    Nonlinearity    120    0     I: gemm_2_output                          int8(1x8) (9)      
                                                          S: nl_3_scratch0                                             
                                                          O: nl_3_output                            int8(1x8) (12)     
------ ---------------- ---- --------------- ------ ----- ----------------------------------------- ------------------ 



Number of operations per c-layer
------- ------ --------------------- ----- ------------ 
c_id    m_id   name (type)             #op         type 
------- ------ --------------------- ----- ------------ 
0       0      gemm_0 (Dense)          160   smul_s8_s8 
1       1      gemm_1 (Dense)          136   smul_s8_s8 
2       2      gemm_2 (Dense)           72   smul_s8_s8 
3       3      nl_3 (Nonlinearity)     120     op_s8_s8 
------- ------ --------------------- ----- ------------ 
total                                  488 

Number of operation types
---------------- ----- ----------- 
operation type       #           % 
---------------- ----- ----------- 
smul_s8_s8         368       75.4% 
op_s8_s8           120       24.6% 

Complexity report (model)
------ ------------------------------- ------------------------- ------------------------- ------ 
m_id   name                            c_macc                    c_rom                     c_id   
------ ------------------------------- ------------------------- ------------------------- ------ 
0      serving_default_keras_tensor0   ||||||||||||||||  32.8%   ||||||||||||||||  44.8%   [0]    
1      tfl_pseudo_qconst3              |||||||||||||     27.9%   ||||||||||||      34.5%   [1]    
2      tfl_pseudo_qconst1              |||||||           14.8%   |||||||           20.7%   [2]    
3      nl_3                            ||||||||||||      24.6%   |                  0.0%   [3]    
------ ------------------------------- ------------------------- ------------------------- ------ 
macc=488 weights=464 act=208 ram_io=0

Generated files (7)
--------------------------------------------------------------------------------- 
C:\Users\med ammar bellalah\.stm32cubemx\network_output\8_channel_data_params.h   
C:\Users\med ammar bellalah\.stm32cubemx\network_output\8_channel_data_params.c   
C:\Users\med ammar bellalah\.stm32cubemx\network_output\8_channel_data.h          
C:\Users\med ammar bellalah\.stm32cubemx\network_output\8_channel_data.c          
C:\Users\med ammar bellalah\.stm32cubemx\network_output\8_channel_config.h        
C:\Users\med ammar bellalah\.stm32cubemx\network_output\8_channel.h               
C:\Users\med ammar bellalah\.stm32cubemx\network_output\8_channel.c               
